ElegantRL/Beta/elegantrl/2021-04-04 ElegantRL/AntBulletEnv-v0_2_3247/actor.pth (torch, 380681 bytes, 10 tensors)

net_state.0.weight f4 [128, 28]
000000 16 f1 f1 3d ac 39 56 bd 58 6f 6d 3e 1f 86 24 bd
       0.118135616 -0.052301094 0.23187006 -0.04016697
000010 d6 9b 4e bc e9 5b ef bd c2 b6 b8 3e d4 47 89 3d
       -0.012610396 -0.11687452 0.36076933 0.06703153
000020 40 d6 57 3c 3b 76 7d be 43 32 2c bd 0b 58 0a 3c
       0.01317364 -0.24752133 -0.04204012 0.008443843
000030 8c 64 e8 bc ff 0f 8f 3d 73 a6 d3 3e f8 c2 2a 3b
       -0.028368257 0.06985473 0.41337928 0.0026056152
000040 4b 7d a8 be e6 57 0e 3e 93 33 da bd b7 ce cf 3b
       -0.3290809 0.13900718 -0.10654368 0.006341781
000050 14 39 b8 3d 1a a2 dc bc 60 14 2e 39 4b c0 ec 3d
       0.08995262 -0.026932765 0.00016601523 0.115601145
000060 5b cc 56 bd a2 88 ce 3c d4 df 1a bc b1 b8 05 3d
       -0.052440982 0.025211636 -0.009452779 0.03264684
000070 ea 96 1d 3e 68 cc 45 3e 8f 61 be be 6e fa 11 3c
       0.153896 0.19316256 -0.37183806 0.008909805
000080 b7 aa 56 3d 35 83 45 3d 9f ea 2f 3e 63 02 2c 3e
       0.0524089 0.048220832 0.17179345 0.16797785
000090 0b 42 c6 bd 4c 22 1f 3e 2b 49 af 3e 0e 2f 49 3d
       -0.096805654 0.15540427 0.3423551 0.04911714
0000a0 cb 34 e5 3c 33 4f 9d bc 17 cc 5e 3e e4 97 f5 3b
       0.027979275 -0.019202804 0.21757542 0.0074949134
0000b0 36 15 8e be a2 28 fc bd 61 10 af be 36 f6 95 bb
       -0.27750558 -0.123124376 -0.34192184 -0.00457647
0000c0 3e 4f fa bd 72 09 95 bb fb 18 ec 3d 7e 75 10 bc
       -0.122221455 -0.004548245 0.11528202 -0.008817075
0000d0 b4 b1 18 bc ad df c0 3b b0 3e 65 3c 01 f5 58 3c
       -0.0093197115 0.005886039 0.013991997 0.013242007
0000e0 7a 37 33 be d7 02 1b 3d 02 78 91 be 30 17 2c 3e
       -0.17501631 0.037844505 -0.2841187 0.1680572
0000f0 cb 2c 02 3e 9c 45 c8 bd ce 99 25 be d5 f8 1f 3e
       0.127124 -0.09778902 -0.16171953 0.15622266
000100 8a e7 7f 3e fb ae 25 3c 80 af 0a 3e 56 88 31 3d
       0.24990669 0.010112519 0.1354351 0.04334291
000110 e5 14 b2 bd e3 15 3a be 2b 50 e3 3e 4f f8 a1 3c
       -0.086953916 -0.18172412 0.443971 0.019771723
000120 98 02 4b 3e a8 de 96 3b d8 d0 1e be f4 f7 f0 3b
       0.19825208 0.0046041794 -0.15509355 0.007353777
000130 22 1f a1 bd 3c be ea 3d 7b 45 b7 bd 5b a7 f4 bd
       -0.07867266 0.114620656 -0.08948799 -0.11945983
000140 b0 79 4a bd c6 45 78 39 03 9c fd 3a 1f 01 24 bd
       -0.049432456 0.00023677116 0.0019348863 -0.04004013
000150 26 60 18 3f f0 af 28 bf 70 e1 0b 3c eb e6 9d be
       0.5952171 -0.6589346 0.008537635 -0.3084024
000160 7a 96 87 3e 3b f5 f7 3d bb e6 4b bf 72 23 0e 3d
       0.26481992 0.12107321 -0.7964894 0.034701772
000170 9a 6e ef bd 77 72 8a 3d cc 8f 16 be ca 0b 03 bd
       -0.116910174 0.06760114 -0.14703292 -0.031993665
000180 65 eb dc 3e 96 a0 0f bb 7d 00 1b bd fe 8a 05 be
       0.43148342 -0.0021915785 -0.037842263 -0.13041303
000190 ec f9 80 3e de 27 8c bd 77 1a fd bd ab de 81 bd
       0.25190675 -0.068435416 -0.123585634 -0.06341299
0001a0 27 85 60 bd 81 48 a1 bd 65 ee 97 3d 8c e3 74 3e
       -0.054814484 -0.07875157 0.07418517 0.23914927
0001b0 61 2d 13 bd 98 cd 9c bb 57 1f 7f 3c 7a 37 d2 3d
       -0.03593195 -0.004785251 0.015571437 0.102644876
0001c0 16 88 f1 bc d8 5e 67 bc 3a 2e 86 3e 54 04 6b 3d
       -0.029483836 -0.014121734 0.26207143 0.057377174
0001d0 0e 45 95 3c 05 d2 62 be 8c ec 19 be f0 8c 37 3d
       0.018221404 -0.22150429 -0.15031642 0.044812143
0001e0 c1 1b 87 3e 8c e6 af 3c b4 6f 03 3e 23 c9 5b 3d
       0.26388362 0.021472238 0.1283558 0.053658616
0001f0 6c de 07 be 6c 00 fb bd 69 f1 9f bd 13 4a 23 be
       -0.13268441 -0.1225594 -0.07809717 -0.15946226
000200 30 45 f4 3b 07 f5 60 3d 38 33 fc 3c 52 81 7d bd
       0.007454537 0.054921176 0.030786142 -0.061890908
000210 53 e1 a2 3d e7 6b ca 3d 5c 34 5a be 93 89 0f 3d
       0.079531334 0.09883862 -0.21309036 0.03504331
000220 01 1f 27 3c bb 0d c5 3b c6 bd 87 bc 23 8c 40 bd
       0.010200263 0.0060135997 -0.016569983 -0.047008645
000230 a2 aa 75 bd 5a 0c 1f bd bb 53 ab 3d f3 6f c4 bc
       -0.05997718 -0.03883014 0.0836558 -0.023979163
000240 86 a2 ae 3d d1 c2 8c 3c 4f 3a 00 3e 73 a4 6a 3e
       0.08527093 0.01718274 0.12522243 0.22914295
000250 d6 d7 93 3d 12 af 43 be 9e ce 9c bd f1 75 ee bc
       0.07218902 -0.19109753 -0.076565966 -0.029108973
000260 47 f4 e2 3d b9 ee 71 3c 47 8d 7d 3e 6c ef f4 bd
       0.110817485 0.014766389 0.24760924 -0.119597286
000270 84 78 f7 bd d3 82 26 3d 0e ff 8f 3d ec bf 85 bc
       -0.120835334 0.040652107 0.0703107 -0.016326867
000280 87 c5 0d be b8 d3 a6 3d 4b 18 df 3e d0 78 6d 3e
       -0.13844882 0.08145851 0.43573222 0.23190618
000290 94 4f 5c bc d6 f0 1e 3c 59 0f 1a ba 83 c1 9c bc
       -0.013446707 0.009700974 -0.0005876921 -0.019135242
0002a0 cc c0 31 3e ba bc 41 3e eb 17 bb be 08 6b c9 be
       0.17358702 0.1891965 -0.36541685 -0.3933947
0002b0 36 1d bb bd 31 a6 09 be 9a bc 9c 3c 30 c7 5c 3d
       -0.09136431 -0.13442303 0.019132901 0.053900898
0002c0 8a 1b e2 bd 4c 2a 11 3e f0 25 17 3d bd 5d c5 3d
       -0.11040409 0.14176291 0.036901414 0.0963702
0002d0 63 ef 1b 3d ad f6 af 3d 56 32 96 bd 0f b3 3f be
       0.038070094 0.085919715 -0.073338196 -0.18720649
0002e0 33 3f 2e be c6 70 01 be bb dc 36 be 9d 07 ea bd
       -0.17016296 -0.12640676 -0.1785764 -0.11427233
0002f0 85 6f 59 bd dc 7e c7 bd 17 99 5d 3d 87 6d 4f 3e
       -0.05308487 -0.097409934 0.054101076 0.20256625
000300 1f c6 c4 bc d7 c3 89 3b 24 e9 0d bd 41 fa d0 3b
       -0.024020253 0.004204254 -0.03464617 0.006377489
000310 56 b5 01 be bc fb 5c be 7e 2c df be 0c f8 0f be
       -0.1266683 -0.21580404 -0.43588632 -0.14059466
000320 54 9d 6c bd 15 c7 b0 bd 40 ef 24 bf df 03 cd be
       -0.057767227 -0.08631722 -0.64427567 -0.40042016
000330 3c b2 5a be 36 f8 1f be e8 c1 f6 bd 64 48 f4 3b
       -0.21357054 -0.15622029 -0.120487034 0.0074549187
000340 db 2f 14 3e e7 f7 36 3d 4c ff d9 3e 25 8f 28 3d
       0.1447138 0.04467001 0.4257759 0.04115214
000350 1d 8c ec 3d bc 1d ae 3d aa ad 3c be 56 dd 3a bd
       0.11550162 0.08501765 -0.18425623 -0.04562124
000360 6c 07 4c 3e f9 5b 36 bd bd 93 22 bc a7 3d 7a 3d
       0.19924706 -0.044521306 -0.009922919 0.061093953
000370 a1 0e 41 3d 79 42 e5 bc fd c9 1c bd b7 83 de 39
       0.04713309 -0.027985798 -0.03827857 0.00042441275
000380 e6 57 d8 bc 87 44 3b be 3a ff 94 3c 7f 41 c5 be
       -0.0264091 -0.1828786 0.018188108 -0.38526532
000390 1a b9 c4 bb dc 33 11 bd f1 53 4f be d1 1d d9 3d
       -0.006003511 -0.035449848 -0.20246865 0.1060139
0003a0 85 d2 9e 3d e5 5b 1e 3d 43 6b 01 3f 5f e1 e3 3d
       0.07754997 0.038661856 0.50554293 0.111269705
0003b0 84 37 17 3e d5 05 fb 3d 4d f4 cb 3e 8b 41 15 3d
       0.14767271 0.12256972 0.39834824 0.03643946
0003c0 14 ee f5 bd 65 45 21 be f2 22 0b be 9f 75 fb bc
       -0.120083004 -0.15749128 -0.1358755 -0.030695735
0003d0 26 65 60 bd bb 55 8b bd 32 5c 9e be d5 8d e0 bc
       -0.054783963 -0.06803461 -0.30929714 -0.02741138
0003e0 28 1f 48 bb ed 4b c6 3b 08 75 56 bc c3 4b 0d bd
       -0.0030536149 0.0060515315 -0.013089426 -0.03449608
0003f0 75 66 77 3d 29 c4 6b 3e 5f e7 71 3e 33 a6 94 be
       0.060400445 0.23024048 0.23623417 -0.2903305

net_state.0.bias f4 [128]
000000 b8 e1 4e 3e 8f 4f bc 3e ea 5d 7d bf 24 bf 5d 3e
       0.20203292 0.36779448 -0.98971426 0.21654946
000010 0f 90 33 bb 26 c3 10 be bb 92 ac 3e c3 de a8 bf
       -0.0027399098 -0.14136943 0.33705696 -1.3192981
000020 b8 39 43 be 74 7e 03 bf 2b 4a d9 3d 27 84 af be
       -0.19064987 -0.5136483 0.106098495 -0.34280512
000030 d8 19 50 bf b7 49 be ba a2 5d 82 3e 81 db ec be
       -0.81289434 -0.0014517818 0.2546206 -0.46261218
000040 63 9c 88 bd 36 92 b4 be c8 42 14 bf 44 eb 59 bf
       -0.066704534 -0.352678 -0.579144 -0.8512461
000050 0c 00 d3 bf 4b 6d b4 bc 51 a8 a3 3e c7 7c 78 3d
       -1.6484389 -0.022024771 0.31964353 0.060665872
000060 7b 0f c6 be 2e b4 97 be 9d 81 ad 3e 61 cf 42 3d
       -0.38683686 -0.29629654 0.3388795 0.047561053
000070 7f af c3 bf a9 db 99 be 9f 9c 7e be 23 ed 90 bf
       -1.5287932 -0.300504 -0.24864434 -1.1322368
000080 3c bb 73 3d db 85 0b bd e8 17 f9 be 08 e3 56 bf
       0.059504732 -0.0340632 -0.48651052 -0.8394017
000090 47 47 c7 bf f5 90 2d bd bb 57 80 bd f1 17 ae be
       -1.5568627 -0.04237457 -0.06266733 -0.3400264
0000a0 fc bf 64 bd 6e 8d 08 bf 4a 35 0e 3f 39 8e c6 bd
       -0.055847153 -0.53340805 0.5555006 -0.096950956
0000b0 f4 6b 4f 3f 22 02 08 bf c0 37 45 3e 61 5e 2a 3f
       0.810241 -0.53128254 0.19259548 0.6655026
0000c0 e9 9f a4 be 16 18 2b bc de 78 3b bf 31 e8 e6 be
       -0.32153252 -0.010442754 -0.73231304 -0.45099023
0000d0 ac b5 8d be 7b ac 0d bf 44 45 70 bf a3 2f 04 3f
       -0.27677667 -0.5534131 -0.9385569 0.5163519
0000e0 c2 63 79 bf 9a cf d2 be f6 ff 2e 3f 67 59 92 3e
       -0.97417843 -0.41174012 0.68359315 0.28583834
0000f0 48 e6 13 3f 15 75 20 bf 09 06 98 be 98 7a 2a 3e
       0.57773256 -0.62678653 -0.29692104 0.16648328
000100 45 cb 5d 3d 5f f9 1e be 74 cc ea be b6 90 38 3e
       0.05414893 -0.15524815 -0.4585911 0.18023953
000110 56 9f 1b bf 3b f2 20 3f 29 ba 1b 3f 82 96 e1 be
       -0.6079 0.62869614 0.6083093 -0.4406014
000120 fc bf b2 3e 60 a9 6c be b5 a4 9d 3e 96 05 1e 3e
       0.34912097 -0.23111486 0.30789724 0.15431818
000130 f8 6f c9 bd 65 a8 22 be 41 1b 7e 3e ba 3b af be
       -0.098358095 -0.1588455 0.24815084 -0.34225255
000140 e3 4c a5 3e b5 8f 87 be fa b1 eb bd c9 76 04 be
       0.32285222 -0.26476827 -0.11508556 -0.12935938
000150 be 6b 52 bf a1 37 6e be cc 30 87 bf 44 22 b4 bc
       -0.8219565 -0.23263408 -1.0561767 -0.021988995
000160 57 4b ba 39 10 b8 d6 be 87 72 a1 3e 71 6e 53 bf
       0.00035532817 -0.41937304 0.3153269 -0.82590395
000170 d6 27 30 3e 03 fe 00 bf a0 fb fa 3e 16 ac 8d 3e
       0.17202696 -0.5038759 0.490201 0.27670354
000180 f1 24 cc 3d fb d4 e9 3e b6 6a 10 be 6e 97 71 bf
       0.099679835 0.45670304 -0.14103207 -0.9437169
000190 d1 e0 32 3f 9a ef b3 be 5d bc 10 bf 43 a0 9c 3e
       0.6987429 -0.3514374 -0.5653742 0.3059102
0001a0 1c 40 cb be cb dd e2 3e 5b f6 a6 bf 7e ae df 3e
       -0.3969735 0.4430984 -1.3043932 0.43687814
0001b0 64 4b ef bd 09 55 49 3f 68 52 bf be 0c a7 61 bf
       -0.116843015 0.7864538 -0.37367558 -0.8814552
0001c0 bb f1 63 bd d3 78 98 be c1 5d ba 3d 75 62 6b bf
       -0.055650454 -0.29779682 0.090999134 -0.9194711
0001d0 f2 f3 2f 3f 33 6a b8 3d 89 da 6f bf 50 7a 3c bf
       0.68731606 0.09004631 -0.93692833 -0.73624134
0001e0 20 15 80 bf 6b 15 82 3e d5 1e d6 be 7a de 83 3e
       -1.0006447 0.25406966 -0.41820398 0.25755674
0001f0 8c ba ae 3e 47 ba 62 bf cb c5 79 3d 20 5e 00 3e
       0.341267 -0.88565487 0.060979646 0.12535906

net_state.2.dense1.0.weight f4 [128, 128]
000000 ac 3c 0f 3e 23 1e 93 be a8 09 aa be 1c 29 3a 3e
       0.13987988 -0.2873393 -0.33210492 0.18179744
000010 8e af 85 3d fd 8a 14 3e 31 3a d9 be fe ff aa be
       0.06527625 0.14506145 -0.4242721 -0.33398432
000020 f7 bb 72 bd 15 5c 97 be 10 79 4f 3d c0 53 d4 bc
       -0.05926129 -0.2956244 0.050652564 -0.025918841
000030 1f fb 8e be cc 25 f3 3d 13 d5 61 3e 5f 9f b5 3d
       -0.27925965 0.118724436 0.22053938 0.08868288
000040 c6 d0 1b be 83 b0 2d bf 21 37 79 bd a6 f3 ae be
       -0.1521636 -0.6784746 -0.06084359 -0.34170264
000050 f2 d2 fe 3c 43 6f 97 be 59 ab e2 3d f8 46 89 3e
       0.031106446 -0.29577073 0.11067838 0.26811957
000060 d9 25 7e be 48 7e 12 bd c7 d4 aa bd 24 ab cc bd
       -0.24819125 -0.035764962 -0.08341365 -0.0999358
000070 a5 94 e0 bd ed 62 94 3b 3b 37 08 3e 82 27 6e 3e
       -0.10965852 0.0045283944 0.13302319 0.23257259
000080 ee 6d c0 be 10 99 55 3e a8 51 b3 be 63 4b f6 3b
       -0.3758387 0.2085917 -0.35023236 0.007516311
000090 06 25 3e bf 8b d6 30 be 57 f9 f5 3c 44 a9 6b be
       -0.74275243 -0.17269342 0.030026121 -0.23013788
0000a0 df b9 50 be b5 bb 33 be f7 cb bb 3d 94 8f cb 3d
       -0.20383404 -0.17552073 0.091697626 0.09939495
0000b0 59 3c 92 3d 69 dd dc bd 3f 47 57 3e 51 61 96 bd
       0.07140417 -0.10784418 0.21023272 -0.073427804
0000c0 ac 74 80 be a4 f1 75 bd 7f ad 47 3f 75 b9 8a 3d
       -0.25089014 -0.0600449 0.7799911 0.06773654
0000d0 98 6c df bd ee 42 f3 3d c6 fe ce 3d a4 4d 70 3e
       -0.109093845 0.11878 0.10107188 0.23467118
0000e0 14 20 fa 3d f2 44 34 3e 4b 29 f3 bd 75 a6 75 be
       0.1221315 0.17604426 -0.118731104 -0.2398928
0000f0 88 c0 c8 3d 2b 4e 44 3e 4e 4f eb bb 52 ae 8f 3e
       0.098023474 0.19170444 -0.0071810847 0.28062683
000100 34 8e 96 3d f3 48 cc be 1a d2 97 bd 79 8b c6 3c
       0.07351342 -0.39899406 -0.074131206 0.024236428
000110 4f 58 2e 3e 75 81 7b bd 94 50 86 be 09 0f 1c 3e
       0.17025875 -0.061402757 -0.2623335 0.1524011
000120 90 19 75 be c4 1d 31 bc b9 45 f1 3b f9 b8 6d be
       -0.23935533 -0.010810319 0.007363048 -0.23215093
000130 26 42 0c 3f b4 ed 07 3e fa 09 8d 3e 9f 48 2c bd
       0.54788435 0.1327427 0.27546674 -0.042061444
000140 35 3e 76 3d 25 aa 93 bd 1c cc 8e bc ec b7 0e 3e
       0.06011792 -0.07210187 -0.017431311 0.13937348
000150 c5 ab 70 3e 27 9e 63 3e 4f ab bc 3b b7 89 cb 3d
       0.23503025 0.22228299 0.0057577263 0.099383764
000160 69 21 0d bf e5 5a 69 be 60 aa 0f be 1e f2 48 be
       -0.55129105 -0.2278858 -0.14029837 -0.1962361
000170 f3 11 85 be b0 72 4e bd 61 f5 5b bd c3 ee 26 be
       -0.25990257 -0.050402343 -0.05370081 -0.16302018
000180 0b d4 ac be f1 e0 1a 3f 1b be 61 bc 61 ac 43 be
       -0.33755526 0.60499483 -0.013778235 -0.19108726
000190 9d 47 e0 bc 6a 5d 51 3e f0 fc 03 3e 21 9c 32 3c
       -0.027377898 0.20445791 0.12889457 0.010901482
0001a0 12 23 25 3d 54 d9 97 3d de 5e 36 be b6 d1 19 3e
       0.04031665 0.07414499 -0.17809626 0.15021405
0001b0 17 b7 62 bd 00 9c a5 3e e0 cd 4a 3e cd ac ac 3d
       -0.05535039 0.3234558 0.19805098 0.08431397
0001c0 8a ae b6 be f4 bc 05 3f 87 a5 52 bd 36 58 ae bd
       -0.35680038 0.52241445 -0.05142739 -0.08512919
0001d0 81 d4 05 3e 97 3c 7a be ce 41 0b bd 35 6f d5 3d
       0.13069345 -0.24437176 -0.033998303 0.10421602
0001e0 6c b6 43 bf 4c ac 60 3e b6 79 8a bd f9 48 0e 3e
       -0.7645023 0.21940726 -0.06761496 0.13895024
0001f0 1a 16 9f 3d d2 1d c2 be 5a 83 f4 be a7 b3 73 be
       0.077678874 -0.37913376 -0.47756463 -0.23799
000200 68 19 b2 3d 43 82 72 be c2 5d da be 16 2f 6c 3f
       0.08696252 -0.23682503 -0.42649657 0.9225935
000210 83 d7 b6 be d1 5a cf 3d 1c 40 7a be 79 6c ad 3e
       -0.35711297 0.10124744 -0.24438518 0.3387182
000220 e3 1d 89 3d 7b d8 15 bd 49 cd 90 bd 4c 15 0b be
       0.066951536 -0.036583405 -0.07070405 -0.13582343
000230 fb cc 82 bc 9d 4c e0 3d e3 17 50 be 37 aa 18 3e
       -0.015966883 0.10952113 -0.20321612 0.14908682
000240 72 66 0d 3e b0 72 88 3d cd 9a 37 3e 2d be 83 3b
       0.13808611 0.066625 0.17930146 0.0040204735
000250 c0 07 0b bf 85 1c 99 3e 04 15 9b bd 61 de ae bc
       -0.543087 0.2990457 -0.07572368 -0.021346273
000260 bd 7e 0c 3e 86 dc a1 be 58 5a 42 bf ac 22 60 be
       0.13720222 -0.3161356 -0.75919104 -0.21888226
000270 cc 7c 57 bd d6 06 2f be 0b 31 38 be 6c d4 be be
       -0.05260925 -0.17092451 -0.17987458 -0.3727144
000280 f3 9c 9e be bc 5b 55 3e cf 00 b8 be 5f c5 e9 be
       -0.30979118 0.20835775 -0.35938117 -0.45658395
000290 26 f2 40 3d 21 38 f9 be 0c 40 0f 3f 86 9d a1 3e
       0.04710593 -0.48675635 0.559571 0.31565493
0002a0 82 22 f4 bd 10 97 9b be 63 39 1e 3f c5 26 cb be
       -0.11920644 -0.3038869 0.61806315 -0.39678016
0002b0 22 43 2a be 6d b9 02 be 76 25 0e bf 48 2a e8 3c
       -0.16627172 -0.12766047 -0.5552591 0.028340474
0002c0 66 4f 78 be c4 f2 45 3d ca b9 37 bf 76 31 24 be
       -0.24249038 0.048327222 -0.71767867 -0.16034493
0002d0 3a 22 db 3c f5 1e 10 3e 85 9f 64 be 43 10 08 be
       0.026749719 0.14074309 -0.22326477 -0.13287453
0002e0 7a e1 67 be 53 a9 17 bd 44 03 bb be 3a c6 1c be
       -0.22644606 -0.037026715 -0.3652593 -0.15309992
0002f0 ed c6 db bd ba 32 61 3e cf d4 84 be 89 85 36 be
       -0.107313015 0.21992007 -0.2594361 -0.17824377
000300 72 9d e5 3d 5b cc c3 3e 37 bf 60 3c 95 10 9e be
       0.11211671 0.38241848 0.013717464 -0.30872026
000310 9f a7 58 be d9 da 8e be 1b 03 94 3e 59 6f de 3d
       -0.21157692 -0.27901343 0.2890862 0.10861082
000320 1a 33 cc be 4a 45 2d be 53 c5 e6 3d 85 ad 2f 3d
       -0.39882737 -0.16920963 0.11268105 0.04289009
000330 f7 c4 08 3e b8 ec 10 bd 08 3c ee bd 37 76 d3 be
       0.13356386 -0.035382003 -0.11632544 -0.41301128
000340 d9 aa cd be 5e 72 32 3e b7 01 8d be 59 06 73 3e
       -0.4016941 0.1742644 -0.2754037 0.2373289
000350 cf 46 58 3e ee 7c 28 bf f1 8a 4a bf 9c bb b6 be
       0.21120761 -0.6581563 -0.7911826 -0.3569001
000360 f6 3d b1 3e 95 4f 1f 3e 83 32 e7 3d 29 40 c1 3e
       0.34617585 0.15557702 0.11288931 0.37744263
000370 84 76 e8 bd ac 45 13 bd 2e 19 c1 bd 7c 39 bc bc
       -0.1135073 -0.035955116 -0.09428631 -0.02297663
000380 a1 f8 8d 3e 17 56 d3 bd 42 50 65 3e 04 5c 23 be
       0.2772875 -0.10319155 0.22393897 -0.1595307
000390 41 d8 85 be 88 c2 13 3f fa d2 b6 3e d6 a0 89 bd
       -0.2614155 0.57718706 0.35707837 -0.0672013
0003a0 a6 6f c0 3c 38 71 75 be dd 50 df be 63 ce ec 3e
       0.023490738 -0.23968971 -0.4361638 0.4625121
0003b0 59 c3 99 be 64 f9 13 bf 53 f3 fc 3c 66 34 6f 3d
       -0.3003185 -0.57802415 0.030877745 0.05839958
0003c0 f2 22 a7 bd 00 ea 90 3d d8 44 d5 3e 69 82 ad 3d
       -0.08160962 0.07075882 0.41654086 0.084721394
0003d0 62 cf b5 bd c8 0e a1 be 23 67 b6 3d 7e cd da be
       -0.08877446 -0.3145659 0.089063905 -0.42734903
0003e0 6d e1 c1 3e 06 21 04 be cf bc 87 bd d4 e5 89 ba
       0.378673 -0.12903222 -0.06627809 -0.0010520765
0003f0 61 f4 b7 bd d3 04 82 3d a4 f6 bb be ad 77 7f be
       -0.089821585 0.063485764 -0.3671161 -0.24947996

net_state.2.dense1.0.bias f4 [128]
000000 03 2c b8 3e 70 cb 50 bc 4a c4 59 bf 62 7b ea be
       0.35971078 -0.012743816 -0.8506514 -0.4579726
000010 b3 d9 eb bc 68 6b 56 3c 8a 86 74 3e 65 cc 84 bc
       -0.02879033 0.013087131 0.23879448 -0.016210744
000020 b8 f2 82 3e 02 c0 9f be 9b c4 39 be 61 5b 8b bf
       0.25575805 -0.31201178 -0.18141405 -1.0887262
000030 25 d2 00 be dd 9f d1 be 78 1d da be d5 12 17 3f
       -0.12580164 -0.40942279 -0.42600608 0.5901311
000040 ff 2b 52 3e e3 69 17 bf f7 9c 63 be ac b7 c0 bd
       0.20524596 -0.59145945 -0.22227846 -0.09410033
000050 de b0 e0 3c 3f f8 02 3c 89 0d 1d be a4 1e 86 3d
       0.027428087 0.007993757 -0.15337195 0.06548813
000060 90 44 25 be a4 e0 49 be 8b 80 95 3e 88 5e 25 bf
       -0.16139436 -0.197146 0.29199633 -0.6459737
000070 22 3e 3f 3e c5 9a 3a be b8 f6 7d 3d c4 ca a0 bd
       0.18676046 -0.18223102 0.062002867 -0.078511745
000080 f4 3d d6 bd 08 b6 0a bf f1 ca 95 bd c9 56 58 3e
       -0.10461035 -0.5418401 -0.073140986 0.21126856
000090 52 5e a5 be 8a 91 7c bd 5f 94 2c 3e dc 43 bb bd
       -0.32298523 -0.061662234 0.16853474 -0.091438025
0000a0 1f 32 7e bf a1 0c 0d be 26 40 41 bf 1e ef 9f bd
       -0.9929523 -0.13774349 -0.7548851 -0.0780928
0000b0 bb a7 bc 3e 7c c2 dc 3e 5f d5 13 3d e9 80 05 3e
       0.36846718 0.4311713 0.03609216 0.13037457
0000c0 b9 c8 48 bf 7d 24 8f bd 9c 62 b9 3d 83 46 53 be
       -0.7843128 -0.069893815 0.09052011 -0.20632367
0000d0 a1 c8 e9 3d 5a 8c 60 bf 48 5e 6b bf 4a 77 f0 be
       0.1141522 -0.8771416 -0.91940737 -0.4696601
0000e0 4a 20 e0 bd e3 d8 82 3e 9b 82 89 bd 45 56 36 3e
       -0.10943659 0.25556096 -0.06714364 0.17806347
0000f0 ff 9e 05 bd a7 fe 83 be 48 cb 1a 3f c0 4a f3 be
       -0.032622334 -0.25780222 0.6046643 -0.47517967
000100 89 38 f1 be da 78 13 bd 53 ec 49 be c6 1a 24 be
       -0.47113445 -0.036003925 -0.19719057 -0.16025838
000110 ce 83 0b be af d0 45 bd 69 b6 f3 bd 25 16 8c be
       -0.13624498 -0.04829472 -0.11900026 -0.27360645
000120 90 0b 5d 3e 2b 27 82 be 5f d2 c4 be 0c 7d 16 3c
       0.21586442 -0.25420508 -0.3844175 0.009185087
000130 39 e1 f5 3d 4a 9a 72 3e 66 f4 bc 3e d5 f4 ac be
       0.120058484 0.23691669 0.3690521 -0.33780542
000140 94 30 15 3e 53 b7 72 3d d5 4a 05 bd 6f 35 0a bf
       0.14569312 0.059256863 -0.03254207 -0.53987783
000150 41 8c 5f 3e 7f ec 00 bd 11 81 27 3f ec 5a aa be
       0.21830846 -0.03147554 0.65431315 -0.33272493
000160 31 19 14 3e 7d 73 d1 be f2 56 14 bd bc f0 15 be
       0.14462735 -0.40908423 -0.03621573 -0.14642614
000170 ca ad 49 be 8a 0a 2b bf 4a fc ed 3d 7e a8 3b 3f
       -0.19695202 -0.66812956 0.11620386 0.73303974
000180 23 5e bc be 4e 8c 4a be aa 08 cb 3e b4 79 19 3f
       -0.3679057 -0.19780084 0.39655048 0.5995133
000190 09 8a 05 3f 66 31 9f bf 09 59 40 3f 53 5e 04 3f
       0.5216375 -1.243695 0.75135857 0.5170643
0001a0 03 8a bd 3e 1d 60 70 3e 56 a6 f7 3e 7e da cd 3d
       0.37019357 0.23474164 0.48369092 0.1005144
0001b0 81 c7 be 3e ca 51 c5 be bf 23 b0 3e 56 9b b0 bd
       0.37261584 -0.38538963 0.34402272 -0.08623378
0001c0 6d 82 57 3d 66 b7 06 3d 2f 21 f8 3d 99 b9 56 3e
       0.052614618 0.032889746 0.12115704 0.20969237
0001d0 14 9d 37 bd f0 e9 12 3e 69 fc 25 be ef df 80 3e
       -0.044827536 0.14347053 -0.16209568 0.25170848
0001e0 69 ac cc 3d fa 00 69 be 6a 2d 99 be c8 4f f4 bd
       0.09993822 -0.22754279 -0.2991746 -0.119292796
0001f0 84 67 a8 bd cf 1a 5d be 1e c0 57 3e 7d 93 2b 3e
       -0.08222869 -0.21592258 0.2106938 0.16755481

net_state.2.dense2.0.weight f4 [256, 256]
000000 a0 58 02 bf ea 75 34 3d 1a 5c 5e 3e b5 24 fb 3e
       -0.5091648 0.044057764 0.21714821 0.49051443
000010 52 4e b1 3e 5b 6c fc be f3 4a 87 3e 7d f1 33 bf
       0.34630066 -0.4930142 0.2642437 -0.70290357
000020 a5 f8 a1 3e af 4d 52 bf d5 a2 7d be b5 10 d9 bd
       0.31635013 -0.82149786 -0.24769147 -0.1059889
000030 36 bf e7 3d e3 4b a0 bd a2 81 7c be 71 35 a0 bf
       0.113157675 -0.07826974 -0.24658826 -1.2516309
000040 57 88 4e 3d 2c 41 5c 3b 14 46 19 3e ef 3d 9e be
       0.050422993 0.0033608181 0.14968139 -0.30906627
000050 8b d1 95 bf cc c4 c2 bd 83 62 6a 3e 55 99 75 be
       -1.1704572 -0.09510192 0.22889142 -0.23984273
000060 20 7a 63 3e 48 10 53 be f7 88 04 3e 78 a0 2a bf
       0.22214556 -0.2061168 0.12942873 -0.66651106
000070 e1 29 e4 3e 4f 7f 84 3e 06 d7 5a be 60 a5 59 bf
       0.445632 0.2587838 -0.21371087 -0.8501797
000080 07 22 0a be dc b5 95 bc 8d 7c 1f 3f ae de 02 3e
       -0.13489543 -0.018275194 0.62299424 0.12780258
000090 8b 7c 3f bc c4 b4 3f 3d 06 3f bc 3b 18 10 a2 bc
       -0.011687408 0.04680325 0.0057448177 -0.019783065
0000a0 b8 36 3c 3d f2 e7 91 be 97 71 47 bf 89 14 33 3e
       0.04595062 -0.28497273 -0.779077 0.17488302
0000b0 26 d1 d1 3d e5 28 0d 3e d4 06 a9 be 31 2d 74 bd
       0.1024497 0.13785131 -0.33013022 -0.05961341
0000c0 2b 38 c2 3d 37 4b 88 bc 48 a1 90 3f 79 54 95 3e
       0.094833694 -0.016637428 1.1299219 0.2916601
0000d0 51 48 89 3e ac c7 7e bd 13 99 47 3d 4a eb cc bd
       0.26812986 -0.06220214 0.048729967 -0.10005815
0000e0 d1 4d 69 bf 80 c4 bc be 24 df 45 3e 0e 2c 4d be
       -0.91134363 -0.36868668 0.19323403 -0.20036337
0000f0 43 63 9b 3c b2 c7 91 be 91 50 81 bf f2 30 0b be
       0.01896823 -0.28472668 -1.0102712 -0.1359289
000100 62 c4 10 bf 60 5e 8c 3e 1d 1a 93 bf 53 52 c0 bd
       -0.56549656 0.27415752 -1.1492344 -0.09390702
000110 76 13 3a 3c c4 2b 1e 3e 6a 13 b1 be d7 b9 f1 3d
       0.011357179 0.15446383 -0.34585124 0.11803024
000120 0b f0 ea 3d af cc 24 bc 6f ca c1 be 87 c3 93 3e
       0.11471566 -0.010058566 -0.37849757 0.28860113
000130 be 1e 76 be 0f 56 f0 be e1 d2 4b 3e bc a3 93 be
       -0.24035165 -0.46940657 0.19904663 -0.28835857
000140 b2 4c 84 be a9 99 1e bd e3 b6 4a bf 86 c8 b8 be
       -0.25839764 -0.03872076 -0.79185313 -0.36090487
000150 63 d2 4e 3e 22 b7 46 3c 1a 1d 1c be 1c ce 9d bc
       0.20197444 0.012128623 -0.15245476 -0.01926332
000160 77 3b 6b bf 00 19 2e bd 56 a6 d8 be eb 72 a5 bf
       -0.9188761 -0.04250431 -0.42314404 -1.2925695
000170 d4 f6 18 be 43 9d e4 3c 4c 27 81 bd 84 26 52 bd
       -0.14937907 0.02790702 -0.063063234 -0.051306263
000180 03 aa 7a be 05 c0 f8 3d 92 e6 69 bc 50 89 8e 3e
       -0.24478917 0.12146 -0.014276164 0.27839136
000190 c7 15 ee 3d 75 20 39 c0 c4 89 a4 be 34 7f b6 be
       0.116252474 -2.892606 -0.32136357 -0.35643923
0001a0 e3 9c 5a be 01 a6 24 3e 84 67 80 3f 9c 16 87 be
       -0.2134891 0.1607895 1.003159 -0.26384437
0001b0 6e 6a a9 3d db 57 46 be d1 6b b5 be e6 89 f3 be
       0.08272253 -0.19369452 -0.3543382 -0.47566146
0001c0 b5 cb e6 bd 1f f9 32 bf 78 ba 7f 3e 78 31 47 be
       -0.11269323 -0.6991138 0.24973476 -0.19452465
0001d0 83 bf f6 3d 8c 8a ab 3e 8f c7 28 bd c0 a0 a0 3d
       0.12048247 0.3350414 -0.04120594 0.07843161
0001e0 3d a7 37 be 29 03 89 bd da 8b 5e be 87 2c 05 bd
       -0.1793489 -0.06690056 -0.21733037 -0.032513168
0001f0 f6 5c 83 be e6 5a a8 3e 61 33 25 be ed 4e 61 be
       -0.2565686 0.3288185 -0.16132881 -0.22002764
000200 7d 95 23 bf 9c 45 32 3e 13 15 52 bf ac ca 32 bf
       -0.63899976 0.17409366 -0.82063407 -0.698405
000210 35 39 6a 3e cf 3c 3c bd fe 93 9f be 7a 18 e6 bd
       0.22873385 -0.04595643 -0.31167597 -0.11235137
000220 8c d9 cf be 8b a6 6a bf 34 8c c8 3d 8c c0 b7 3e
       -0.40595663 -0.91660374 0.097923666 0.3588909
000230 e4 4c 4b 3e 15 40 e4 3e 5e 20 99 be a8 a2 70 be
       0.1985355 0.4458014 -0.29907507 -0.23499548
000240 de d2 b0 be 3a ba f2 be 76 03 23 bf ab 2b ff be
       -0.3453588 -0.47407705 -0.63677156 -0.49838004
000250 5a 7b 4d 3d 29 b2 37 be f3 d9 9c be e1 08 60 3e
       0.050166465 -0.17939056 -0.30635032 0.21878387
000260 d5 fd fb be 40 a4 c4 3e dc 9e 08 bf 0e e4 fd bc
       -0.49217096 0.38406563 -0.533674 -0.030992534
000270 60 fd 68 be c6 4a e2 3e 60 e7 55 3e ec da 53 bd
       -0.22752905 0.44197673 0.20889044 -0.051722452
000280 39 e5 e5 be fe fc c4 3c 20 71 de b9 77 94 00 be
       -0.44901446 0.024046417 -0.00042427424 -0.12556635
000290 70 d5 cc bd a3 b0 8c 3e 5a 50 5b 3d a9 ec 0a bd
       -0.100016475 0.27478513 0.053543426 -0.033917103
0002a0 ac d1 b9 be 23 01 34 3f 8c 9e 2d be 2e 74 0f bf
       -0.3629278 0.70314234 -0.16955012 -0.5603665
0002b0 48 db e4 be e0 55 93 be 15 6e fc 3d 7c b7 21 3b
       -0.44698548 -0.28776455 0.12325684 0.0024676016
0002c0 a7 f8 8f bd 3f c6 94 3d 42 be 05 bd 42 59 20 3e
       -0.070298485 0.07264375 -0.032652147 0.15659049
0002d0 ef 31 2e be 19 d7 94 3f 44 14 15 be 7c 44 bc be
       -0.17011236 1.1628143 -0.14558512 -0.36771
0002e0 3f 6a e4 be 24 b9 8e be f0 7e 90 3d 7f c3 08 3e
       -0.4461231 -0.27875626 0.070554614 0.13355826
0002f0 79 53 0d 3e 56 2f 78 bd be 05 6c 3e c7 6f 5a 3d
       0.13801374 -0.060592018 0.23049065 0.053329255
000300 61 8d 9b be d7 9c 0d bd a1 52 42 3e 42 34 21 3d
       -0.303813 -0.034573402 0.18976833 0.039356478
000310 45 a8 67 be d3 a7 9c bd 19 7e f6 be 68 ed a1 3e
       -0.22622783 -0.076491974 -0.4814308 0.3162644
000320 45 b9 2e 3e ea 96 36 bf e8 50 51 be 85 55 b1 bd
       0.17062862 -0.71324027 -0.2044102 -0.0865889
000330 71 9a 95 3e f8 c7 98 be 73 23 b4 3e fe 3d 16 bd
       0.29219392 -0.29840064 0.35183296 -0.036680214
000340 ec 99 87 bd c1 45 2f bc 6b 04 c2 bd 17 33 12 3e
       -0.06621155 -0.010697783 -0.09473499 0.14277302
000350 e1 18 86 3d ed 07 85 be 9c 90 95 bd e9 00 46 be
       0.06547714 -0.2598261 -0.07302973 -0.19336285
000360 53 a6 bf 3e d4 02 b8 be 7c fd a9 3e d2 7b 2d 3e
       0.37431583 -0.35939658 0.33201206 0.16941765
000370 f4 ad bf 3d 1d 61 92 3f e7 23 2d 3e d3 e9 d5 3e
       0.09359351 1.1435887 0.16908227 0.41779956
000380 8f 6c 10 bc d5 da a2 3d 33 b0 4d be 78 68 1a 3e
       -0.008814945 0.07951895 -0.20086746 0.15078914
000390 9f 4a e1 be df e0 67 be 8d 27 71 3e 77 08 a2 be
       -0.44002244 -0.22644375 0.23550244 -0.31647083
0003a0 3d e9 0c 3e 82 9e 3f 3e 5c 16 91 3e 84 99 f7 be
       0.13760848 0.1871281 0.2833737 -0.4835931
0003b0 a7 87 9d 3d 01 8e 32 bf d2 3c 1d 3d 05 4b ca 3d
       0.07691889 -0.6974793 0.03838808 0.0987759
0003c0 3a c4 7d 3e 73 54 5a be b7 c3 a2 3d fd 3f 9c bf
       0.24781886 -0.21321277 0.07947486 -1.2207028
0003d0 1f 1d ca 3c 9d 8f 07 3e 6d 53 10 3f 7d 66 0e be
       0.02467209 0.13238378 0.563773 -0.13906284
0003e0 24 87 35 bf ef 14 9d 3d 5c 96 cd bc 6a a5 7d 3a
       -0.70909333 0.076700084 -0.025096111 0.00096758327
0003f0 93 77 c8 bd 0c c3 47 bf c8 8d 9d be 8f 04 e9 be
       -0.09788432 -0.7803199 -0.30772233 -0.4551129

net_state.2.dense2.0.bias f4 [256]
000000 93 bf ea 3d 94 16 c5 be d0 d2 a3 be f6 69 65 bd
       0.11462321 -0.38493788 -0.31996775 -0.056009255
000010 21 7c 04 be db 4e 09 be 8a 4b a0 be 9f e4 84 bd
       -0.12937976 -0.13408987 -0.31307632 -0.064889185
000020 1f 39 a9 be 17 2c 9f be df 05 ba be 1d e3 01 be
       -0.33051392 -0.31088325 -0.36332604 -0.12684293
000030 07 04 bd 3b 34 92 21 be 23 50 a4 be 89 b2 4f bd
       0.0057683024 -0.15778428 -0.3209239 -0.050707374
000040 21 be d4 3d a5 a9 49 be ba 1e ff 3d a6 3e 80 bd
       0.10387827 -0.1969362 0.124570325 -0.06261949
000050 5b b3 4d be b9 7c 67 bd 8e a5 9a 3b 81 0c 10 bf
       -0.2008795 -0.05651543 0.0047194427 -0.5626908
000060 3e 49 10 be 5f 3d 6c bd 74 f9 6b be 1e 5b 33 bc
       -0.1409044 -0.057675716 -0.23044378 -0.010947017
000070 27 be 6f be 70 be 82 be 2b 5e 2e be d9 76 25 be
       -0.23412381 -0.25535917 -0.1702811 -0.16158618
000080 b2 0a 96 be 26 b0 bb be fe 90 ee bd 90 e9 f7 be
       -0.29305035 -0.36657828 -0.11648749 -0.48420382
000090 be 1a 9e bc 98 dc b6 be 88 38 10 be 30 1f 70 be
       -0.019299861 -0.35715175 -0.14084065 -0.23449397
0000a0 ab 92 de bc 6c 4d d3 bd 86 de 94 be 7c 01 13 bd
       -0.027169546 -0.103175014 -0.29076022 -0.035890087
0000b0 66 7c 3c be 84 2b be be 1b 91 46 be 33 1a b5 be
       -0.18406829 -0.37142575 -0.19391291 -0.3537155
0000c0 32 eb 95 be a0 13 1c be dd fe d5 bd 81 d6 0f 3c
       -0.29281002 -0.15241861 -0.10449002 0.008779169
0000d0 35 90 1e be 7e e6 af be f6 b6 85 be e6 9f 8c be
       -0.15484698 -0.3435554 -0.2611615 -0.27465743
0000e0 78 78 8b be 6f 83 7e be 5a dd 93 be 42 e4 00 bf
       -0.27240348 -0.24854825 -0.28879815 -0.50348294
0000f0 d9 04 56 be df 9d 86 be 14 a8 a5 be c3 93 54 be
       -0.20900287 -0.2629232 -0.32354796 -0.20759492
000100 dc b9 f4 be af f5 f9 3a d0 9e 45 be bb 67 be bd
       -0.4779805 0.0019070412 -0.19298863 -0.09297129
000110 f3 8a e4 be 18 96 45 bc e3 10 d3 bd 0f 4e c9 bd
       -0.4463726 -0.012059711 -0.10305955 -0.098293416
000120 49 06 27 bd be 52 8b bd 86 3c e7 be 94 c5 55 be
       -0.04077748 -0.06802891 -0.45163363 -0.20876151
000130 1f 01 e0 bd 6c 9b 3e be 4e 88 f9 bd fb 6d 7a be
       -0.10937714 -0.18613976 -0.12184201 -0.24456017
000140 d1 d6 41 bf 0d db 30 be 15 ac d7 bd 11 56 1a bf
       -0.7571841 -0.17271061 -0.10530869 -0.60287577
000150 18 9c 87 bd 14 6d dd be 9f a9 9a be 55 0f 67 be
       -0.066215694 -0.43247283 -0.30207536 -0.22564442
000160 38 1b 6a be fb 26 04 be 4a 9e e9 bd 74 86 7f be
       -0.22861946 -0.12905495 -0.11407144 -0.24953634
000170 30 23 02 bf 65 2b ca be d2 27 05 be 6f c4 5b be
       -0.5083494 -0.39486232 -0.13003471 -0.21461652
000180 fc c5 18 be 19 33 cd bd a7 85 26 be 60 b6 8f be
       -0.14919275 -0.10019512 -0.16261922 -0.2806883
000190 09 45 27 be 33 ae 2a bd 48 45 79 be 73 a1 7f be
       -0.16334929 -0.041670036 -0.24342835 -0.24963932
0001a0 63 cb 84 be 10 63 5e be 98 1b 3e 3c 03 1f 72 bd
       -0.25936422 -0.21717477 0.011603259 -0.059111606
0001b0 a0 9c a5 be 93 2b be be 17 cb 2c be e2 86 9a be
       -0.32346058 -0.3714262 -0.16874348 -0.30181032
0001c0 ce 53 5a be c8 93 ab be a5 4f 9a be 68 ac 40 be
       -0.21321031 -0.33511186 -0.3013889 -0.18815768
0001d0 1c 40 aa be a6 f3 60 bd ec 8e 4a bf 8a ec 51 be
       -0.33252037 -0.05491986 -0.7912433 -0.20500389
0001e0 e2 df 85 be f9 88 0e 3e 7c 72 06 be 7c 7d 2d bd
       -0.26147372 0.13919438 -0.1312961 -0.042356
0001f0 f6 b9 ed bd 8f 10 88 bc 18 ac 8e bd 1e d6 36 be
       -0.11607735 -0.016609458 -0.06966418 -0.17855117
000200 7a f9 bb be 92 c5 9c be d1 14 8c be f4 0d 8d be
       -0.36713773 -0.30619484 -0.27359632 -0.27549708
000210 0b 17 40 be 97 27 d9 bd 1b 11 66 be cf 5c 4b be
       -0.1875879 -0.10603254 -0.22467463 -0.19859622
000220 50 85 71 be 9c b9 45 be 30 cd 48 be 2f 02 e0 3d
       -0.23586011 -0.19309086 -0.19609523 0.109379165
000230 c3 0e ca be 99 84 21 be af 18 92 be 80 11 ef be
       -0.39464387 -0.15773238 -0.28534457 -0.4669304
000240 44 79 b9 bd 7d 8e 76 be 98 d7 ce be 15 28 81 be
       -0.09056333 -0.24077792 -0.4039886 -0.25225893
000250 a3 c7 31 be c5 ee 82 be 7e c9 29 be a7 f2 e8 bd
       -0.17361312 -0.25572792 -0.1658077 -0.11374407
000260 5d 24 de be 87 c3 b0 be 4a de 54 be 14 94 25 3e
       -0.43387118 -0.34524176 -0.20787922 0.16169769
000270 6c ed 91 bd 48 28 c8 bd a1 31 4c 3d 43 fe 80 be
       -0.07125363 -0.09773308 0.049852017 -0.25193986
000280 ff a6 77 be 64 ef 11 be 9b 2a 6b be ea c7 28 be
       -0.24184798 -0.14251477 -0.22965471 -0.16482511
000290 21 a5 36 be 7c e2 97 be fb 7f 94 be 3c 80 d0 be
       -0.17836429 -0.2966498 -0.2900389 -0.40722835
0002a0 cf 44 d6 be 16 d3 88 bd cb a3 9a be ba 07 67 bd
       -0.41849372 -0.066808864 -0.3020309 -0.056403853
0002b0 12 62 e3 bd bb c8 87 be ad 30 1f be 3c 86 2f bd
       -0.1110269 -0.26520333 -0.15545912 -0.042852625
0002c0 93 68 3a be 77 02 57 bd 26 73 8b be 56 13 55 bd
       -0.18203954 -0.052492585 -0.2723629 -0.052020393
0002d0 73 e9 ed bb 9f 39 7f be 36 7a a7 be 0f ea b1 be
       -0.0072604953 -0.24924324 -0.32710427 -0.34748885
0002e0 a5 ce a1 be 8e 52 22 be cf 85 2f be e4 80 69 be
       -0.3160297 -0.15851805 -0.17140888 -0.22803074
0002f0 48 82 34 be 4a aa 87 be e1 fd 0b be 8c 25 35 be
       -0.17627823 -0.26497108 -0.13671066 -0.17690104
000300 cd 01 00 be d5 09 19 be a8 17 a4 be 02 9f b3 be
       -0.12500687 -0.14945157 -0.32049298 -0.3508225
000310 38 a9 26 3e 32 a8 c3 bc 3f f0 81 be e7 df 0a be
       0.1627549 -0.023883913 -0.25378606 -0.13561974
000320 92 73 7a bd dc fb 50 be 91 7b 9b 3d ff e1 87 bc
       -0.061145373 -0.20408577 0.07591928 -0.016587256
000330 57 69 0d 3e eb ed 76 bd 2e ad 92 3d 65 f7 db be
       0.13809715 -0.06028549 0.07161938 -0.42962185
000340 e6 a9 da 3b d8 95 9b be 7f 99 62 be 7c e3 91 be
       0.0066730855 -0.3038776 -0.22128867 -0.2849387
000350 f9 52 9f be 03 05 3d be 4a 6a 86 be b7 d1 3b be
       -0.3111799 -0.18458943 -0.26252967 -0.18341719
000360 3b 54 c2 bb f3 02 f7 3d 0c 41 78 bd b3 88 e2 be
       -0.005930451 0.120611094 -0.06060891 -0.44244918
000370 ca 3b e9 be 48 6f b9 be c0 f0 82 3d 99 51 86 be
       -0.45553428 -0.36217713 0.06393576 -0.2623413
000380 48 cf 40 be 7c 4d c4 be 38 6a c4 bd 16 df 73 be
       -0.18829072 -0.38340366 -0.09590572 -0.2381557
000390 22 ab a5 bd b9 be a0 be d1 6a 05 be 13 8b 8c bd
       -0.080892816 -0.3139551 -0.13029028 -0.06862464
0003a0 f1 50 95 be f4 71 36 be 7e 96 e1 bd d6 fe 6e be
       -0.29163316 -0.17816907 -0.11015032 -0.233394
0003b0 16 6e df bd 5e 2e 13 be c0 68 43 be 67 b4 e5 be
       -0.10909669 -0.14373156 -0.19082928 -0.448642
0003c0 2e a0 68 be 8a 1d 2b bc fd 07 84 be 9b 46 16 bf
       -0.22717354 -0.010444054 -0.25787345 -0.58701485
0003d0 b6 37 c2 bd ee d5 2f be 2a f9 0f bf 3a b7 21 be
       -0.09483282 -0.17171451 -0.5623957 -0.15792552
0003e0 ee 74 19 be 3e 5f 7e 3d 42 7c 8d be 12 28 1d 3e
       -0.14986011 0.06210255 -0.27633864 0.15347317
0003f0 dc f8 34 be 3f 17 f7 be 4d 3a 1d bf 88 b8 80 be
       -0.17673057 -0.48259923 -0.61417085 -0.25140786

net_a_avg.weight f4 [8, 512]
000000 86 8c b4 3c 77 f7 13 be 37 3e 5a 3d f9 9e 83 3d
       0.022039663 -0.14449869 0.05328199 0.06426806
000010 33 90 ba bd 03 b3 b1 3d b4 e0 c2 bd 96 11 7b 3d
       -0.09109535 0.08676722 -0.09515515 0.061296068
000020 b9 fa 5f be b9 2f 9a 3b 76 6a b0 bd 19 89 93 3c
       -0.21872987 0.004705396 -0.08614056 0.01800971
000030 c8 25 20 3d a1 b8 b7 3d 08 d5 bb 3d 55 24 a4 bc
       0.03909853 0.08970762 0.09171492 -0.020036856
000040 7a 1b 16 bb 93 a6 0a 3e f1 30 c9 bd a4 18 c8 3d
       -0.002290456 0.13540106 -0.09823788 0.09770325
000050 6f 2c 23 be 10 d5 2a 3c 71 f4 b5 bd 94 78 12 bc
       -0.15934919 0.010426775 -0.08884514 -0.008939881
000060 c9 1b 01 3d 95 74 05 3d ce 50 c1 3d 81 b5 6f 3d
       0.03152064 0.032581884 0.094392404 0.058522705
000070 29 2d cc bd d8 24 aa 3c 48 e6 c6 bd ac e2 1b bc
       -0.09969551 0.020769522 -0.097118914 -0.009514492
000080 ba c2 0e 3d 9c bb 95 bc ec c7 23 bc f3 34 08 be
       0.034853674 -0.018277936 -0.009996396 -0.13301449
000090 24 ba c3 bd f8 21 09 bd ab d8 3d bd 70 f3 d9 3d
       -0.09556988 -0.03347966 -0.04634921 0.10642135
0000a0 b9 ad 29 bd 10 30 3d 3e df 2e 1e bd 8d 0c 12 3d
       -0.04142544 0.18475366 -0.03861892 0.0356565
0000b0 4e 83 0a 3e 29 1b d4 bc 5b aa e1 bc cd 0f 5d bd
       0.13526651 -0.025891857 -0.027547052 -0.053970147
0000c0 9d e2 9c 3d 56 84 d7 3d bf c7 0e 3d cb ab bb 3c
       0.076604106 0.10523288 0.03485846 0.022909066
0000d0 3e 38 21 3b 6d e4 c5 3c 20 e0 07 bc ac cf 68 bd
       0.0024600173 0.024156773 -0.008293182 -0.056838676
0000e0 25 c8 9d bc 49 0a 8a 3d 89 e5 89 bd 96 cf 2e 3d
       -0.019260475 0.06740243 -0.067332335 0.042678438
0000f0 59 a4 d6 3d 9e 36 f4 3b 7e 22 cb 3d cf 32 a8 bd
       0.104805656 0.0074528 0.09918688 -0.08212816
000100 da 8b 9a 3d 87 31 25 bd 80 f8 f9 3c 48 0c a1 bd
       0.07546206 -0.040330436 0.030514002 -0.078636706
000110 2c 14 a2 3c 82 ee a0 3d d0 40 97 bc ea 95 c7 bc
       0.01978501 0.07857992 -0.018463522 -0.024363477
000120 01 7c 31 bc 90 13 99 bc db ba 1b 3e 23 00 ae 3c
       -0.0108327875 -0.018686086 0.15207998 0.0212403
000130 ba 84 2c 3c 35 7d 60 bd 2f fa 81 3b e9 e5 bf bd
       0.010529691 -0.054806907 0.003966592 -0.09370024
000140 a9 73 97 bd 1a fa b0 bb de f1 e4 3c e0 6b 92 bd
       -0.07395107 -0.005400908 0.027947363 -0.07149482
000150 f3 e9 7e bd e5 b1 de 3d 53 a5 2c be 26 2d 35 bd
       -0.06223483 0.108737744 -0.16859941 -0.04423251
000160 6f c0 86 bd f4 8e a9 bd 12 c5 0d 3e 9f 1f 04 3e
       -0.065796725 -0.08279219 0.13844708 0.12902687
000170 35 13 89 bb 68 93 b6 bc d6 a9 82 3d 60 93 d3 bd
       -0.004183198 -0.022287086 0.0638005 -0.10330844
000180 30 10 b5 3d c1 18 47 bc c6 21 2f bb fc e9 51 3d
       0.08840978 -0.012151898 -0.0026723011 0.051248536
000190 5c 69 0c be ce 9a d3 3a 26 3e 8b 3d 6f 24 c3 3d
       -0.13712066 0.0016144158 0.06798963 0.095284335
0001a0 83 bf 8d 3b e1 e0 84 3d 3a 92 09 bc f3 51 ae bd
       0.0043258085 0.06488205 -0.00839668 -0.08511724
0001b0 7a 59 58 3c 22 b5 f4 3d 13 5c 36 bd 30 b2 92 3d
       0.013204927 0.11948611 -0.044521403 0.07162893
0001c0 ec 06 38 3d f7 91 a6 bd ae 35 dc bd 1a bf a9 bd
       0.044928476 -0.08133309 -0.10752426 -0.08288403
0001d0 54 fd d1 3d 2e 60 94 bd 3c 44 0a bd 36 d5 9a 3d
       0.10253397 -0.07244907 -0.03375648 0.07560198
0001e0 2f f1 e3 bc b7 0d 4f bd 40 7a c8 3c fa 2a 88 bd
       -0.027824966 -0.05055019 0.024472356 -0.06648822
0001f0 63 78 ea 39 94 c4 09 bd ed c1 2f be d9 12 89 3d
       0.00044721653 -0.033634737 -0.1716382 0.06693048
000200 fa 12 91 3d 2a fc b4 bb 4c 3a 94 3c a3 fd 6f 3d
       0.070836976 -0.0055232244 0.018094204 0.058591496
000210 59 df 23 3d 98 13 ed bc 06 cb dd 3c d5 c2 e7 bd
       0.040007923 -0.028940007 0.027074348 -0.11316458
000220 1f 13 10 3e a3 89 6a bd ac f8 ef 3b 94 b3 35 3d
       0.14069794 -0.057260167 0.007323345 0.044360712
000230 62 9d 75 bc d5 bf e2 3c 35 c2 18 3d 11 c0 30 3d
       -0.014991136 0.027679363 0.037294585 0.04315192
000240 59 6b af bd 34 6a 52 3d 64 10 cd 3c 49 1f a6 bc
       -0.08565397 0.051370814 0.02503223 -0.02027859
000250 b4 5c 92 bc 77 e9 a0 3d 07 4d 6f 3b 86 83 fa bc
       -0.01786647 0.0785703 0.0036514418 -0.030580293
000260 6e b4 24 be 18 42 c7 3c 99 1a f1 bc 46 1f 84 3d
       -0.16084453 0.024323508 -0.029431628 0.064512774
000270 78 4d 44 3e 48 bf 25 3c 5a 57 bf 3c 11 b2 df bc
       0.19170177 0.010116406 0.023357082 -0.027306588
000280 1f c0 44 3c 0d be ac 3d 2b 0f dc ba 8b e1 c1 3c
       0.012008696 0.08434687 -0.0016789188 0.023667118
000290 e9 4b 11 bd 65 fc 03 3e 24 e2 70 ba 93 03 40 bd
       -0.035472784 0.1288925 -0.0009188971 -0.04687841
0002a0 7d c0 7b bd a5 67 0c 3d 4c 52 21 3b 6b 73 6b 3d
       -0.061462868 0.03427853 0.0024615703 0.057483118
0002b0 a5 81 ac 3d f7 e7 c2 bc fa b5 06 bd 78 f1 6b bc
       0.08423165 -0.02379225 -0.03288839 -0.014400832
0002c0 11 ab 8f bd c7 72 8f bd 96 44 42 bd 1f 4f 28 bd
       -0.0701505 -0.07004314 -0.04742869 -0.04109108
0002d0 5a a2 b9 3d cb 01 44 bd 8a 7d 9b bd 02 20 71 bd
       0.09064169 -0.047853272 -0.07592304 -0.058868416
0002e0 ea 65 90 39 f8 fb 40 3d 4c 45 2e be a4 76 a4 bc
       0.00027541752 0.047115296 -0.17018622 -0.020076104
0002f0 a3 d1 09 be 13 c9 8d 3d 3a 48 5f bb 48 e9 01 3d
       -0.13458876 0.069231175 -0.003407015 0.031716615
000300 15 d0 a3 bd d7 81 b8 bc ee 0c 8a 3c b8 54 0c bb
       -0.07998673 -0.02252285 0.016851868 -0.00214128
000310 65 42 82 bd c8 fd 18 3d 4d 52 4b bd e3 5f 67 3d
       -0.0636032 0.0373514 -0.049639035 0.05648793
000320 73 15 62 3d 2a 79 15 bd 66 3e 79 3c 5c 33 0c 3c
       0.055196237 -0.036492504 0.015212631 0.008557167
000330 dc 82 26 3d 40 f0 8d bd c7 0b 37 bd ed 6c 1b 3d
       0.04065214 -0.0693059 -0.044688966 0.037945677
000340 6c 6a 21 be e3 74 d8 3c 48 5e b8 3c f3 25 c5 3c
       -0.15763253 0.026422923 0.022505894 0.024065947
000350 31 25 ac 3d 98 a8 2c bc 3b af 72 bd a9 89 e4 3b
       0.08405531 -0.010538243 -0.059249144 0.006974418
000360 e7 2b f9 3d eb 11 08 bc 87 55 82 3c 20 c8 ad bd
       0.12166577 -0.008305053 0.015909923 -0.084854364
000370 75 b2 d4 bc 4a c5 c6 3c ae cd 21 3d d8 09 bb bd
       -0.025964001 0.024263997 0.039502792 -0.09132737
000380 46 0b 35 bc 24 e5 ca 3d 2b b6 ab bd 4d ec 52 bd
       -0.011050051 0.09906986 -0.08384355 -0.051494885
000390 7a 82 24 bc 05 29 4b bd 0c 82 4a be 9a 8f 8e 3d
       -0.010040874 -0.049599666 -0.19776171 0.069609836
0003a0 4c 5d 32 bd 00 c6 03 3d 44 72 2b 3d b3 a7 86 bc
       -0.043546006 0.03217125 0.04185702 -0.016437387
0003b0 26 04 08 3d 3d cb 39 bd 9a a5 4c be b8 d2 9f bd
       0.03320708 -0.04535984 -0.19985047 -0.07803863
0003c0 70 2d cb bc c5 a6 de 3d 1c 66 40 3c e3 17 9f 3c
       -0.02480194 0.108716525 0.011743095 0.01942057
0003d0 e5 48 2a 3d 06 49 c9 bc 3b 60 19 bc 72 70 94 bb
       0.041573424 -0.024570953 -0.009361322 -0.004530006
0003e0 90 7d 29 3d 2a d4 71 3d 0c 10 80 bd 7b b5 33 be
       0.04137951 0.059040226 -0.06253061 -0.17549698
0003f0 05 1b 22 3d dd 77 1a bd 7f d2 84 bc 83 80 06 3d
       0.03957655 -0.037711967 -0.016213654 0.032837402

net_a_avg.bias f4 [8]
000000 9e 76 4f 3d 17 b3 04 3c c9 87 1e 3d b2 3b 70 3d
       0.05065023 0.008099339 0.038703714 0.05865068
000010 f6 72 04 3e 9f 64 cc 3d 7e 15 d6 bd 0a 71 8a 3c
       0.12934479 0.099801295 -0.10453318 0.016899604

net_a_std.weight f4 [8, 512]
000000 0d bf 9b bb 8a 8d 58 bc 16 07 9e bc 82 da a9 bb
       -0.0047529996 -0.013217339 -0.019290488 -0.005183519
000010 3c 8c 80 3c 01 70 be bc e8 35 ce 3c 41 a8 dc 3b
       0.015691869 -0.023246767 0.025172189 0.0067339246
000020 ef a3 c7 bb 9e 72 14 bd a0 dc 29 3c 72 f5 01 bd
       -0.0060925405 -0.03624212 0.0103675425 -0.031728216
000030 5a 5a 73 3c 1c f9 09 bd be a8 b8 bb c2 07 2c 3d
       0.014853084 -0.033684835 -0.00563535 0.041999586
000040 dd 7f e3 3c da 0e 67 3c 8f d6 5e bc b9 db ac 3c
       0.02777093 0.014102662 -0.013600959 0.021100866
000050 1c 39 0d b9 dd 36 e5 3c a3 89 11 3b 2e 24 83 bc
       -0.00013468083 0.027980262 0.0022207282 -0.016008463
000060 27 bd dc bc e3 92 9e ba f4 4f 8b bc 43 a2 d0 3c
       -0.026945664 -0.0012098219 -0.017005898 0.025467997
000070 36 09 10 bc 0f 40 ae 3b 62 09 0f bd 64 07 26 3c
       -0.008791259 0.005317695 -0.034921058 0.010133598
000080 37 9a 26 bc 43 60 c5 bc c4 55 8e bc 6d 23 39 3c
       -0.010168604 -0.024093753 -0.01737488 0.01129995
000090 01 bf 87 3b 5d 75 85 3c b7 7b 5e bc 98 0e eb 3b
       0.0041426425 0.016291315 -0.013579301 0.0071733706
0000a0 b8 12 43 bd 97 00 02 bc 33 3e 4f 3c af db e1 3c
       -0.047625273 -0.007934711 0.012649107 0.027570574
0000b0 dd 9a 03 3c 0f e3 d1 bb 68 96 39 bc 86 af 97 bc
       0.008032528 -0.0064052413 -0.011327364 -0.018516313
0000c0 bd 33 0e bc df f0 d5 3b 66 f2 f5 3a 81 03 9f bc
       -0.008679328 0.006528958 0.0018764257 -0.01941085
0000d0 b0 1b 0e 3d 85 c4 0a 3d fb 68 75 3c ae 67 e5 bb
       0.034694374 0.033878822 0.014978643 -0.007000885
0000e0 ff aa 5d bc 55 0c 46 3c 38 2e f1 3c 74 44 a7 bc
       -0.013529538 0.012087901 0.029440984 -0.020418383
0000f0 a2 19 8a 3c a1 44 35 bd c4 1c 65 3c 8e ab 31 3b
       0.016857926 -0.044254903 0.013983909 0.0027110311
000100 d4 56 05 bc 46 8f f7 bb fe 88 88 3b 7c ac 18 3d
       -0.008138377 -0.0075549213 0.0041667214 0.03727387
000110 ac 2c 8d 3c 5b 18 3a 3c 92 a2 06 bd 7b ef 69 3c
       0.017233215 0.011358346 -0.032869883 0.014278288
000120 10 f5 17 bd 10 13 16 bc ea c1 1b 3c e5 b6 be 3c
       -0.037098944 -0.009159818 0.009506682 0.02328057
000130 a7 de 44 ba 99 21 02 3a 18 f8 8b 3c f5 d1 26 bb
       -0.00075099844 0.0004964113 0.017086074 -0.0025454734
000140 64 bd c7 3b a3 af 38 bc 28 39 23 bb 8c af 20 3d
       0.006095575 -0.011272344 -0.0024905894 0.039229915
000150 85 f5 26 3d 59 65 09 ba 69 5e 51 3c 08 2a 41 3a
       0.04076149 -0.0005241237 0.012778857 0.0007368629
000160 4f c7 6d 3c e7 b5 73 3c 6c f4 1a 3b 62 49 19 3c
       0.014512851 0.014874912 0.0023644222 0.009355875
000170 96 86 20 3c cb 8c b5 3b de 1b 04 bc b4 85 df bb
       0.009797713 0.0055404655 -0.008063285 -0.0068213586
000180 82 19 9e 3c 7d 1d 2b 3c 92 e7 18 bd 3f 0c 14 3d
       0.019299272 0.010444042 -0.037330218 0.03614449
000190 dc 93 cc bc 89 d8 d9 bc ef 07 ff b7 88 6c ac 3a
       -0.024972849 -0.02659251 -3.0402063e-05 0.0013154903
0001a0 20 90 c4 bc 12 d5 9d bb a9 10 b7 bb f7 b3 c4 3a
       -0.023994505 -0.0048166597 -0.005586703 0.0015007247
0001b0 98 2a 8e 3c 85 15 17 3c 5f a9 43 bc 08 70 9a 3c
       0.017354295 0.009221439 -0.011942237 0.018852249
0001c0 01 1d b3 bc b2 a9 8b 3c 5c a7 8a bc bc d2 84 39
       -0.021864416 0.01704869 -0.016925506 0.0002533401
0001d0 7d e9 73 3c 56 f8 9f bc 89 20 e5 bc 6a da e9 ba
       0.014887211 -0.019527595 -0.027969616 -0.0017841582
0001e0 4b 51 ad bc 62 03 50 3b 90 95 d5 3c b7 5f 34 bb
       -0.021156928 0.0031740298 0.026072294 -0.002752287
0001f0 07 55 cd bc 23 eb cc bb 43 d0 07 3d 60 ad 99 3c
       -0.025064958 -0.0062536164 0.0331576 0.01875943
000200 dc bc 2d bb 0c a8 b0 ba 1c 4e 44 3c a7 5c 8b 3b
       -0.0026510274 -0.0013477816 0.011981513 0.0042529884
000210 a3 0e 8a bc 9f 56 6e 3c 6e a2 7b bc d1 04 af bb
       -0.016852682 0.014547019 -0.0153585505 -0.0053411503
000220 0a df 6c 3c 0e ba 27 3c f4 d0 d6 3c a0 8a 89 3b
       0.0144574735 0.01023723 0.026222683 0.0041974336
000230 50 ff 27 bc ad 2f 03 bd e8 1c c9 bb b4 a0 29 bb
       -0.010253742 -0.03202789 -0.006137479 -0.002588314
000240 8b 22 4b 3b 01 f2 0b bc 74 1f b8 b8 68 46 27 bc
       0.003099593 -0.008541585 -8.779662e-05 -0.010209657
000250 b4 2e e0 3b 84 a3 a2 3c c5 c7 d7 bb ea 22 ee ba
       0.006841505 0.019853361 -0.0065850937 -0.0018168364
000260 0c 4d 52 3c 32 22 87 bc 07 dd ac bc ab 36 49 bc
       0.012835752 -0.016495798 -0.021101488 -0.0122811
000270 69 92 22 bd 56 2c b5 3c 3e 5b 14 3c 81 6a d5 bb
       -0.03969041 0.022115868 0.009054957 -0.0065129404
000280 67 ad 56 bc c2 0e 24 bd d3 64 a8 bc be 05 48 bb
       -0.013102866 -0.040053137 -0.02055589 -0.0030521
000290 79 17 7e 3c 28 ea ce bc be c6 7a ba 3e d6 e1 3b
       0.015508526 -0.025258139 -0.0009566358 0.0068919947
0002a0 68 12 81 ba f4 c7 9d 3c 5e 58 a0 3b 52 92 95 3c
       -0.0009847404 0.019260384 0.0048933467 0.018258248
0002b0 b8 b9 96 3b 62 c2 d6 bb 6e 50 4b bb a1 af ac bb
       0.004599776 -0.006553934 -0.0031023282 -0.00526996
0002c0 cc 28 e8 3b ed a6 fd 3b 17 7c c7 3b d7 16 d1 3b
       0.0070849415 0.0077408464 0.0060877907 0.0063808965
0002d0 23 1c 3c 3c 78 40 10 bc e8 3e 81 bc d3 e2 ec 3b
       0.011481318 -0.008804433 -0.015777066 0.007229188
0002e0 ac 72 57 3c 0b 8b 72 3c 89 9e 81 3c f9 59 11 bc
       0.0131498985 0.014803658 0.015822666 -0.008871549
0002f0 f9 1f 66 b9 f0 9b 34 bc 99 02 f1 3c ef 10 ae bc
       -0.0002194642 -0.0110235065 0.029420184 -0.021248309
000300 28 69 83 3b 37 5a 3d bc cf 70 0c bc 19 44 6d 3c
       0.0040103383 -0.011557153 -0.008571818 0.014481568
000310 9f a4 70 3b 9d c4 32 3c 2e a9 39 3c ed e8 41 bc
       0.0036719216 0.010911134 0.0113318395 -0.011835319
000320 b6 89 c3 3c 6e 37 59 bb 81 53 c6 3a d4 07 ad 3c
       0.023869377 -0.003314461 0.0015131087 0.021121897
000330 79 ef 7c bb fd 30 97 bc 72 f1 8b 3a ba 2f dc ba
       -0.0038594885 -0.018455977 0.0010676815 -0.0016798892
000340 24 b8 b6 3c 39 b5 f2 bc 08 c1 93 bc 87 5e 8a bc
       0.022304602 -0.02962743 -0.01803638 -0.016890777
000350 80 33 47 3c f9 c8 43 bc 01 f0 6d bc a8 0f 0f bc
       0.012158275 -0.011949771 -0.014522553 -0.00873176
000360 6e f5 1e 3d 53 08 99 3b 81 f5 cd 3c 11 93 89 bc
       0.03880828 0.004670182 0.02514148 -0.01679376
000370 7d 82 cf bb a3 32 3f bc da 56 8c 3b 23 83 d9 bb
       -0.006332694 -0.011669788 0.0042828145 -0.006637947
000380 f8 27 49 bc ad 37 41 bd 6b 11 d4 3b cb ee 94 3c
       -0.012277596 -0.047172237 0.006471803 0.018180272
000390 d1 64 e9 3a ae e4 24 3c 8b 04 91 3b 5d dc 49 bb
       0.0017806535 0.010064287 0.0044255904 -0.0030801513
0003a0 d1 62 84 3b 41 88 26 3d 59 2e 0b 3c f1 de 7c bc
       0.0040401 0.040657286 0.008494937 -0.015434013
0003b0 f8 e1 f3 bc 33 87 38 3c e8 c4 ef 3b e7 13 a2 3b
       -0.029770836 0.011262703 0.007317174 0.00494622
0003c0 c0 86 5c 3c db e7 07 3d 63 5b 1c bc 57 62 1a bd
       0.013459861 0.0331801 -0.009543273 -0.03769144
0003d0 35 47 3e 3b 0b 94 be 3b eb b2 46 3c 69 0b 78 3b
       0.0029034142 0.005815988 0.012127618 0.0037848598
0003e0 b1 a6 43 bc e4 d8 6e bc 03 ca 0d 3c 2b cb 51 ba
       -0.011941598 -0.014578078 0.00865412 -0.00080029917
0003f0 15 19 da bb d5 f6 33 bb 81 21 b0 bc 9f a2 a0 bc
       -0.006655822 -0.0027460356 -0.02150035 -0.019608794

net_a_std.bias f4 [8]
000000 63 5c af be ed 53 88 be a7 cc a3 be 1f b2 a5 be
       -0.34250173 -0.2662653 -0.31992075 -0.32362458
000010 92 49 87 be 25 f7 6f be 40 11 a5 be 1f 7b a0 be
       -0.26423317 -0.23434122 -0.32239723 -0.31343934
